…
1  /data/user/tr27p/Courses/CS765-DeepLearning/Fi...      1
2  /data/user/tr27p/Courses/CS765-DeepLearning/Fi...      0
3  /data/user/tr27p/Courses/CS765-DeepLearning/Fi...      1
4  /data/user/tr27p/Courses/CS765-DeepLearning/Fi...      0
Model: "model"
_________________________________________________________________
Layer (type)                 Output Shape              Param #   
=================================================================
ImageInput (InputLayer)      [(None, 224, 224, 3)]     0         
_________________________________________________________________
Conv1_1 (Conv2D)             (None, 224, 224, 64)      1792      
_________________________________________________________________
Conv1_2 (Conv2D)             (None, 224, 224, 64)      36928     
_________________________________________________________________
pool1 (MaxPooling2D)         (None, 112, 112, 64)      0         
_________________________________________________________________
Conv2_1 (SeparableConv2D)    (None, 112, 112, 128)     8896      
_________________________________________________________________
Conv2_2 (SeparableConv2D)    (None, 112, 112, 128)     17664     
_________________________________________________________________
pool2 (MaxPooling2D)         (None, 56, 56, 128)       0         
_________________________________________________________________
Conv3_1 (SeparableConv2D)    (None, 56, 56, 256)       34176     
_________________________________________________________________
bn1 (BatchNormalization)     (None, 56, 56, 256)       1024      
_________________________________________________________________
Conv3_2 (SeparableConv2D)    (None, 56, 56, 256)       68096     
_________________________________________________________________
bn2 (BatchNormalization)     (None, 56, 56, 256)       1024      
_________________________________________________________________
Conv3_3 (SeparableConv2D)    (None, 56, 56, 256)       68096     
_________________________________________________________________
pool3 (MaxPooling2D)         (None, 28, 28, 256)       0         
_________________________________________________________________
Conv4_1 (SeparableConv2D)    (None, 28, 28, 512)       133888    
_________________________________________________________________
bn3 (BatchNormalization)     (None, 28, 28, 512)       2048      
_________________________________________________________________
Conv4_2 (SeparableConv2D)    (None, 28, 28, 512)       267264    
_________________________________________________________________
bn4 (BatchNormalization)     (None, 28, 28, 512)       2048      
_________________________________________________________________
Conv4_3 (SeparableConv2D)    (None, 28, 28, 512)       267264    
_________________________________________________________________
pool4 (MaxPooling2D)         (None, 14, 14, 512)       0         
_________________________________________________________________
flatten (Flatten)            (None, 100352)            0         
_________________________________________________________________
fc1 (Dense)                  (None, 1024)              102761472 
_________________________________________________________________
dropout1 (Dropout)           (None, 1024)              0         
_________________________________________________________________
fc2 (Dense)                  (None, 512)               524800    
_________________________________________________________________
dropout2 (Dropout)           (None, 512)               0         
_________________________________________________________________
fc3 (Dense)                  (None, 2)                 1026      
=================================================================
Total params: 104,197,506
Trainable params: 104,194,434
Non-trainable params: 3,072
_________________________________________________________________
None
Model: "model"
_________________________________________________________________
Layer (type)                 Output Shape              Param #   
=================================================================
ImageInput (InputLayer)      [(None, 224, 224, 3)]     0         
_________________________________________________________________
Conv1_1 (Conv2D)             (None, 224, 224, 64)      1792      
_________________________________________________________________
Conv1_2 (Conv2D)             (None, 224, 224, 64)      36928     
_________________________________________________________________
pool1 (MaxPooling2D)         (None, 112, 112, 64)      0         
_________________________________________________________________
Conv2_1 (SeparableConv2D)    (None, 112, 112, 128)     8896      
_________________________________________________________________
Conv2_2 (SeparableConv2D)    (None, 112, 112, 128)     17664     
_________________________________________________________________
pool2 (MaxPooling2D)         (None, 56, 56, 128)       0         
_________________________________________________________________
Conv3_1 (SeparableConv2D)    (None, 56, 56, 256)       34176     
_________________________________________________________________
bn1 (BatchNormalization)     (None, 56, 56, 256)       1024      
_________________________________________________________________
Conv3_2 (SeparableConv2D)    (None, 56, 56, 256)       68096     
_________________________________________________________________
bn2 (BatchNormalization)     (None, 56, 56, 256)       1024      
_________________________________________________________________
Conv3_3 (SeparableConv2D)    (None, 56, 56, 256)       68096     
_________________________________________________________________
pool3 (MaxPooling2D)         (None, 28, 28, 256)       0         
_________________________________________________________________
Conv4_1 (SeparableConv2D)    (None, 28, 28, 512)       133888    
_________________________________________________________________
bn3 (BatchNormalization)     (None, 28, 28, 512)       2048      
_________________________________________________________________
Conv4_2 (SeparableConv2D)    (None, 28, 28, 512)       267264    
_________________________________________________________________
bn4 (BatchNormalization)     (None, 28, 28, 512)       2048      
_________________________________________________________________
Conv4_3 (SeparableConv2D)    (None, 28, 28, 512)       267264    
_________________________________________________________________
pool4 (MaxPooling2D)         (None, 14, 14, 512)       0         
_________________________________________________________________
flatten (Flatten)            (None, 100352)            0         
_________________________________________________________________
fc1 (Dense)                  (None, 1024)              102761472 
_________________________________________________________________
dropout1 (Dropout)           (None, 1024)              0         
_________________________________________________________________
fc2 (Dense)                  (None, 512)               524800    
_________________________________________________________________
dropout2 (Dropout)           (None, 512)               0         
_________________________________________________________________
fc3 (Dense)                  (None, 2)                 1026      
=================================================================
Total params: 104,197,506
Trainable params: 104,194,434
Non-trainable params: 3,072
_________________________________________________________________
None
Number of training and validation steps: 133 and 19
Train for 133 steps, validate for 19 steps
Epoch 1/100
  1/133 [..............................] - ETA: 1:20:00 - loss: 
…
