…
#--#--#--#--#--#--#--#--#--#--#--#--#--#--#--#--#--#--#--#--#--#--#--#--#--#--#--#--#--#--#--#--#--#--#--#--#--#--#--#--
Model Name: vgg16
#--#--#--#--#--#--#--#--#--#--#--#--#--#--#--#--#--#--#--#--#--#--#--#--#--#--#--#--#--#--#--#--#--#--#--#--#--#--#--#--
Model: "FrozenModel"
_________________________________________________________________
Layer (type)                 Output Shape              Param #   
=================================================================
input_1 (InputLayer)         [(None, 224, 224, 3)]     0         
_________________________________________________________________
block1_conv1 (Conv2D)        (None, 224, 224, 64)      1792      
_________________________________________________________________
block1_conv2 (Conv2D)        (None, 224, 224, 64)      36928     
_________________________________________________________________
block1_pool (MaxPooling2D)   (None, 112, 112, 64)      0         
_________________________________________________________________
block2_conv1 (Conv2D)        (None, 112, 112, 128)     73856     
_________________________________________________________________
block2_conv2 (Conv2D)        (None, 112, 112, 128)     147584    
_________________________________________________________________
block2_pool (MaxPooling2D)   (None, 56, 56, 128)       0         
_________________________________________________________________
block3_conv1 (Conv2D)        (None, 56, 56, 256)       295168    
_________________________________________________________________
block3_conv2 (Conv2D)        (None, 56, 56, 256)       590080    
_________________________________________________________________
block3_conv3 (Conv2D)        (None, 56, 56, 256)       590080    
_________________________________________________________________
block3_pool (MaxPooling2D)   (None, 28, 28, 256)       0         
_________________________________________________________________
block4_conv1 (Conv2D)        (None, 28, 28, 512)       1180160   
_________________________________________________________________
block4_conv2 (Conv2D)        (None, 28, 28, 512)       2359808   
_________________________________________________________________
block4_conv3 (Conv2D)        (None, 28, 28, 512)       2359808   
_________________________________________________________________
block4_pool (MaxPooling2D)   (None, 14, 14, 512)       0         
_________________________________________________________________
block5_conv1 (Conv2D)        (None, 14, 14, 512)       2359808   
_________________________________________________________________
block5_conv2 (Conv2D)        (None, 14, 14, 512)       2359808   
_________________________________________________________________
block5_conv3 (Conv2D)        (None, 14, 14, 512)       2359808   
_________________________________________________________________
block5_pool (MaxPooling2D)   (None, 7, 7, 512)         0         
_________________________________________________________________
flatten (Flatten)            (None, 25088)             0         
_________________________________________________________________
fc1 (Dense)                  (None, 1024)              25691136  
_________________________________________________________________
dropout1 (Dropout)           (None, 1024)              0         
_________________________________________________________________
fc2 (Dense)                  (None, 512)               524800    
_________________________________________________________________
dropout2 (Dropout)           (None, 512)               0         
_________________________________________________________________
fc3 (Dense)                  (None, 2)                 1026      
=================================================================
Total params: 40,931,650
Trainable params: 26,216,962
Non-trainable params: 14,714,688
_________________________________________________________________
#--#--#--#--#--#--#--#--#--#--#--#--#--#--#--#--#--#--#--#--
Optimizer :
           name : Adam
       clipnorm : 1.0
  learning_rate : 0.0001
          decay : 1e-05
         beta_1 : 0.9
…
